LSTMCNN/PPG_Dataset/glucose_model.tflite (tflite, 746804 bytes, 19 tensors)

sequential_16/conv1d_37/BiasAdd/ReadVariableOp f4 [64]
000000 68 7f 44 bc a6 71 cb 3c 9f c3 fd bc ca 86 02 3c
       -0.011993267 0.024834465 -0.030977068 0.0079667065
000010 38 2a a4 bb 6f a4 18 bd 7d 17 9f bc 10 e6 85 bb
       -0.0050099157 -0.03726619 -0.01942038 -0.0040862635
000020 ab c6 82 3a 15 91 e4 bc a9 7a ce bc 05 be 4c 3c
       0.000997742 -0.027901212 -0.025204973 0.012496476
000030 d5 60 08 3c b4 df ca 3c 3f 7e 4e 3b 81 8b ee bb
       0.008323868 0.024764873 0.0031508354 -0.0072798138
000040 16 8c 7b ba 2c c1 15 bc ac 81 7d bc d2 c9 16 3b
       -0.00095957646 -0.009140294 -0.015472811 0.0023008478
000050 d7 84 96 bc 88 97 2b bc 10 66 3b bc 8b 79 b8 3b
       -0.01837389 -0.01047314 -0.011437908 0.0056297234
000060 3d 49 f2 38 66 95 a6 bc f7 72 53 ba d9 cf 97 3c
       0.00011553101 -0.02033491 -0.00080661423 0.018531727
000070 09 27 c0 3c a9 c4 46 3c 5e 07 a4 bb 49 ab 9e 3b
       0.023456113 0.012131848 -0.005005761 0.004842196
000080 19 ea af bb 03 0b 09 bb 87 13 16 bb 40 f4 90 bb
       -0.005368483 -0.0020911105 -0.0022899823 -0.004423648
000090 e8 3e 44 3b 06 01 89 b7 80 c2 b2 bc 61 d9 4c bb
       0.0029944722 -1.633215e-05 -0.02182126 -0.0031257498
0000a0 f4 9e 33 bc d9 4f 12 bc 63 d9 98 bc 96 39 66 3b
       -0.01096319 -0.00893017 -0.018658346 0.0035129539
0000b0 ac 06 c5 3a 09 12 ce bc 88 98 72 3c 47 16 88 3b
       0.0015031896 -0.025155084 0.014806874 0.0041530463
0000c0 44 5d c7 3b fe 6e f7 bb c8 26 02 bc 9d da 9f bc
       0.006084116 -0.007551073 -0.0079438165 -0.019513423
0000d0 ab a9 cb bc af 39 6a bc 9d 1b 7e bc 1c 3e 05 bc
       -0.024861177 -0.014295979 -0.015509513 -0.008132484
0000e0 fe be 14 3a 4a 95 83 bb 7e 1a d8 ba de 70 70 bc
       0.0005674212 -0.0040155994 -0.0016487387 -0.014675347
0000f0 9a 3e 83 3c 04 9f cc bb 12 6e 0e 3b 92 f3 b9 3b
       0.016021062 -0.006244542 0.0021733087 0.005674788

sequential_16/conv1d_38/BiasAdd/ReadVariableOp f4 [128]
000000 52 d8 10 bd 80 03 ba bb 57 d9 6f bc be 8e 8f bc
       -0.03536255 -0.0056766868 -0.01463922 -0.01752412
000010 58 b1 90 3b 8f 5a b2 bc a0 0a d8 bc 51 4e 25 bb
       0.0044156723 -0.021771697 -0.026372254 -0.0025223682
000020 2a 4e e6 bc c2 2f 62 bc cd b1 fe 3b 60 ea 05 3b
       -0.028113443 -0.013805332 0.0077726603 0.0020433888
000030 06 88 e6 bb 03 dc 00 bc 46 e8 33 3c dd 7a e2 ba
       -0.007035258 -0.007864955 0.010980671 -0.0017279048
000040 d1 92 d4 3b 78 c2 d7 bc 5f 6c 6e bc d9 a1 3e ba
       0.0064872284 -0.026337847 -0.014552205 -0.0007272042
000050 4d 12 5b bc 70 cd 54 3c b0 cd 31 bc 38 db 65 bc
       -0.013371062 0.012988433 -0.010852262 -0.014029317
000060 9a fa 9c 3c c4 2b 28 bb 81 ca 9f 3b e6 60 d6 bc
       0.019162465 -0.0025660852 0.0048764353 -0.026169252
000070 0d ae 14 bc 17 82 93 bc 64 0f 52 bc bf dc 52 bc
       -0.0090747 -0.018006368 -0.012821052 -0.012870013
000080 3f b9 de bc 6d f2 02 3c 2f 26 80 bc a4 f8 cf bb
       -0.027187942 0.007992369 -0.015643207 -0.006346779
000090 b8 4b a1 3a d5 70 05 bb 2d f8 40 bc 52 85 b7 bc
       0.0012305891 -0.0020361443 -0.01177792 -0.02240244
0000a0 66 16 d3 bc 7d 01 7b bc 59 48 61 ba 3f 35 bc 3c
       -0.025767516 -0.015320179 -0.00085938495 0.022974608
0000b0 ae 0e 7a bc e2 f7 54 bc 58 f8 95 3c 63 18 91 bc
       -0.015262289 -0.012998553 0.018306896 -0.017711824
0000c0 0f c4 f6 bc c7 de 67 bc 7e 2f 44 3c 41 38 cd 3c
       -0.030122785 -0.014152235 0.011974214 0.025051238
0000d0 4f 92 a3 bc 70 12 15 ba ce 4f 32 bc 90 3a cd b9
       -0.019967226 -0.00056866463 -0.010883285 -0.0003914428
0000e0 1b 26 64 bc 00 65 93 bc db 00 89 3a 10 f9 de b8
       -0.013925101 -0.017992496 0.0010452525 -0.000106321764
0000f0 94 9d e8 3b e6 70 0f bc 83 dc 9f ba fb b5 83 bb
       0.007098863 -0.008754944 -0.0012196455 -0.0040194965
000100 88 c6 68 3b 76 a1 a3 3c 5d 48 16 3c 3f 07 a9 bc
       0.0035518724 0.019974452 0.009172526 -0.020633338
000110 f6 90 75 3c b8 32 e8 3b 60 7e 10 bc e1 2d 6d 3a
       0.014988175 0.0070861243 -0.008819193 0.0009047669
000120 a6 50 00 bd ee 75 fa 3b 47 5d 2f 3b e5 aa b2 bc
       -0.031326912 0.007643453 0.0026758478 -0.021810004
000130 d0 51 82 bc 6b 70 73 3b aa 84 9c bb ca 26 5f bc
       -0.015908152 0.0037145864 -0.004776557 -0.013620088
000140 96 fb aa bc 76 c4 40 bc 9d af 9d 3a f0 59 f3 bc
       -0.020871919 -0.01176559 0.0012030486 -0.029705971
000150 af 91 87 bb d0 4e a5 bb 5c 6f 39 3b 5b 83 ce 3c
       -0.00413724 -0.0050447956 0.0028295135 0.02520912
000160 4a e6 88 3b 0a 24 04 3b 85 16 1e bc bd 97 b6 bc
       0.004177843 0.0020163083 -0.009648924 -0.022289151
000170 17 06 29 3c 8c 63 e0 38 4f f1 fa bc c4 04 82 bc
       0.010316393 0.000106996944 -0.030632643 -0.015871413
000180 00 17 ff bb 44 9a d5 3b ec 7a 69 3c 7d 20 a6 bb
       -0.0077847242 0.006518634 0.014250498 -0.005069791
000190 a7 fd ce bb 13 f0 bb 3b af 96 3e bc 12 b0 a0 bb
       -0.006316859 0.005735406 -0.011632605 -0.0049038017
0001a0 e6 5a 53 bd 07 d1 c8 3c d3 94 d2 3b bd cc 94 3a
       -0.05160036 0.024513735 0.0064264326 0.0011352521
0001b0 a7 ee 0d 3c 39 0c 2e bd 54 ab 0b bc a4 cd 2d bc
       0.008662856 -0.042492125 -0.0085247345 -0.010608111
0001c0 9c 81 c9 3b 76 ed 1e 3c 3f 08 fc bb 14 6d 07 bd
       0.006149484 0.00970017 -0.0076914127 -0.03306301
0001d0 4b d8 4d bc 7a fe d4 bb 31 79 8d bc 84 78 a3 bc
       -0.012563775 -0.0065000625 -0.017269703 -0.019954927
0001e0 32 ab 62 3b f2 7d d7 38 e3 da 0b ba 6d 93 87 bc
       0.0034586904 0.00010275458 -0.0005335046 -0.01654979
0001f0 b8 aa 0f bc 63 99 c2 bb 27 2d ae bb 3e 82 a1 bc
       -0.00876873 -0.0059386953 -0.005315441 -0.019715425

sequential_16/conv1d_37/Conv1D f4 [64, 1, 5, 1]
000000 26 76 3b 3b 52 ce 8f 3d 44 df 1d 3d c9 01 af 3d
       0.0028604358 0.07021774 0.038543 0.08545262
000010 90 99 df 3d 1e 4f b2 3d 1e 1d 90 3d 65 54 1f bd
       0.109179616 0.08706497 0.07036804 -0.038898844
000020 db 3d 9f bb 97 a3 8e bd 7a 2c 00 3d 1c 97 fa 3d
       -0.0048596687 -0.06964796 0.031292416 0.12235853
000030 f5 c5 df 3d be 20 f1 3c 0b 55 82 b9 16 57 cd 3d
       0.10926429 0.029434558 -0.00024858894 0.10026376
000040 b8 99 88 bc 5a 0e e0 3d 7a 22 a0 bc 8d 81 4c bd
       -0.016674861 0.10940237 -0.01954769 -0.049928237
000050 26 ba a4 bd 4c b7 dd bd 5e 70 9a bd 73 30 12 3d
       -0.080433175 -0.10825977 -0.075409636 0.035690736
000060 a1 6a 4a 3d 39 29 98 bd 1c 08 8f 3d c4 a9 ba bd
       0.049418095 -0.074297376 0.069839686 -0.091144115
000070 52 68 f1 bd d7 6d d6 bd 0c 53 d8 3d a1 76 20 3d
       -0.11787476 -0.10470169 0.10562715 0.039175633
000080 f6 7d bd 3c 6e a3 61 bd d3 6e 4c bd 37 eb 7b 3d
       0.023131352 -0.0550875 -0.049910378 0.061503615
000090 e2 75 f6 bd 69 94 60 3d 78 9a 3c bc a1 6e 57 3c
       -0.12034203 0.054829035 -0.011511438 0.013148935
0000a0 68 76 a0 bc 92 55 be 3b c7 5a e7 bd 21 3b ab 3c
       -0.01958771 0.0058085406 -0.11296611 0.020902218
0000b0 18 60 fa bc 33 c6 ab bd 35 8c a5 3c 48 e3 6c bd
       -0.0305634 -0.08387413 0.020208457 -0.05783394
0000c0 a4 03 1e bd 39 40 0b 3d 9c a6 3f bd 60 c0 ec 3d
       -0.03857769 0.033996794 -0.04678975 0.1156013
0000d0 13 8c c3 bc d7 a2 0a 3d 41 8a 86 3d 50 52 fd 3d
       -0.023870504 0.033846702 0.065693386 0.123692155
0000e0 ad f3 52 3d 19 b7 c9 3c 93 d9 96 bd 7d 77 ea 3d
       0.05150192 0.02462344 -0.07365718 0.11448572
0000f0 f1 3f a6 3c 41 44 76 bc 18 4b 51 3d f3 2c e9 3d
       0.020294162 -0.015030921 0.051097006 0.113855265
000100 cd 02 83 bd 96 1d 79 bd 67 6e 74 bd ec 64 d2 3d
       -0.063970186 -0.06081923 -0.0596756 0.102731556
000110 83 4e 03 3e 3a b5 17 ba 27 70 c2 3d 2a 79 63 3d
       0.12822919 -0.0005787198 0.094940476 0.055535473
000120 7f fb ff bd 98 87 3f bc cc 20 13 bb 10 53 85 3d
       -0.12499141 -0.011690043 -0.0022449968 0.065099835
000130 6b ad 2b 3d 41 18 8c bc 80 a0 2b bc 80 73 84 bd
       0.04191343 -0.017101409 -0.010475278 -0.064673424
000140 d6 60 31 3d e4 f8 ed bd 49 68 ae 3d 24 74 6b 3d
       0.04330524 -0.11619738 0.085159846 0.057483807
000150 24 84 89 bd 14 bd ca bd d1 87 c0 3d 3b 13 3a 3d
       -0.06714657 -0.09899345 0.09400905 0.045428496
000160 88 7e fc bd 1c 9b 84 bd d6 26 a4 3d 2a 01 a6 3d
       -0.123288214 -0.06474897 0.0801522 0.08105691
000170 ca ac 0b 3d 49 51 ac bd 90 48 e0 bd 57 f3 09 bd
       0.03410033 -0.084139414 -0.1095134 -0.033679333
000180 7e 12 5a bd fd d8 2c bc 01 a2 69 bc 23 2c df 3d
       -0.05324029 -0.010549781 -0.014259816 0.1089709
000190 2c 0e 8f bd 2a a9 79 bc 70 23 ff 3d 7f 96 72 bd
       -0.06985125 -0.015238086 0.12457931 -0.059225556
0001a0 74 23 bf bb e4 64 c5 3d 83 2c 39 3d 10 5c b7 3d
       -0.0058330838 0.09638384 0.045208465 0.089531064
0001b0 0e d4 1c bd 24 db 54 bc 46 b9 09 3d bb 0c 8c bc
       -0.03828817 -0.0129917 0.033623956 -0.017095914
0001c0 6a 22 4d bd e8 5c ef 3d 61 9e 0b be 18 13 1f 3c
       -0.050081648 0.11687642 -0.13634636 0.009709142
0001d0 d4 92 a3 bc 68 67 c5 3d 2a c4 0c 3e 68 64 f8 3d
       -0.019967474 0.09638864 0.13746706 0.12128526
0001e0 5a 2d 02 be f6 d9 76 3d 45 70 c3 bd 58 fb c5 bd
       -0.12712613 0.060266457 -0.09542898 -0.09667081
0001f0 61 6f 27 3d ce 15 0b bd 56 88 08 bc 9b 80 11 3d
       0.040877704 -0.03395634 -0.008333286 0.03552304
000200 de be e6 bb 90 30 80 3d f8 51 aa bd fb 77 e2 3d
       -0.007041796 0.062592626 -0.083164155 0.11058041
000210 3a 98 90 bb ba b2 90 3c 14 22 ce bd eb 39 d6 bc
       -0.004412678 0.017663348 -0.10065094 -0.026150664
000220 20 3d e9 bd 6b 41 b7 3d 7e 8b 99 3d 27 f3 b2 bd
       -0.11388612 0.08948024 0.07497309 -0.08737784
000230 d6 ed 12 be 4c b4 fc 3d a4 05 6c 3c e6 ff ed bc
       -0.1434854 0.123390764 0.014405642 -0.029052686
000240 84 82 cd 3d 99 07 04 bd c1 6f b8 bd 30 eb 83 bd
       0.100346595 -0.03223381 -0.0900569 -0.06441343
000250 cd 0a 1b 3e 2b 8b 06 3e 9e 41 ef bd 6b ce 82 bc
       0.15140839 0.13139026 -0.11682437 -0.015967568
000260 93 c5 83 bd 2b 89 fc 3d f0 16 08 3b da e5 86 bd
       -0.06434169 0.1233085 0.0020765625 -0.065868095
000270 91 15 09 3e e5 66 bf bd 00 7e 9b bb a7 ec b2 3c
       0.13387133 -0.093457974 -0.004745245 0.02184136
000280 94 aa 79 bd 47 a7 14 3e b1 d6 a6 bd 69 0b 07 be
       -0.06095369 0.14516936 -0.08146418 -0.13187946
000290 16 d6 eb bd 0e 6d 84 bd 82 60 ce bc e2 3b da 3d
       -0.11515443 -0.06466113 -0.025192503 0.10655953
0002a0 0d 4a cb 3d 16 8c f1 3d de 68 75 bd 43 83 18 3e
       0.099262334 0.117942974 -0.059914462 0.14893822
0002b0 e0 95 8c bd 79 06 e0 bd 7c c1 02 3d 1c 64 9b 3d
       -0.06864524 -0.109387346 0.031922802 0.07587454
0002c0 c1 4e a2 bd 4d ad d3 3d 3b da 93 bc f1 d8 ba 3d
       -0.07925177 0.10335789 -0.018048396 0.091234095
0002d0 5d 52 8b bd 54 61 6b 3d d4 1c 3f 3d 05 86 ea 3c
       -0.06802819 0.057465866 0.046658352 0.028628359
0002e0 b3 a2 c5 bd ae 90 44 3d 78 1a 11 3e fb 2c 81 bd
       -0.09650173 0.04798954 0.14170253 -0.063074075
0002f0 58 95 ee 3d c1 bd da bd 75 ed 25 3d d1 6d cf b9
       0.11649579 -0.10680724 0.04050966 -0.00039563936
000300 80 c8 a8 3d 7f 6a 80 bd 84 35 a3 bd 09 22 97 3d
       0.08241367 -0.062703125 -0.07969192 0.073795386
000310 58 b5 f0 bc 9e 01 a9 3b 35 cb c8 bc 3d cf 91 3d
       -0.029383346 0.0051576635 -0.02451096 0.07119606
000320 b6 c0 81 3d 30 2f 83 3d 47 66 ca 3d 00 d8 a8 3b
       0.06335585 0.06405485 0.09882789 0.0051527023
000330 f7 51 b4 bd f3 20 ed 3d d0 96 8a bd 30 55 8e bd
       -0.08804696 0.1157855 -0.067670465 -0.06949842
000340 6f 48 01 be 17 d0 56 bd 24 f2 ad bd 82 bd 5d 3c
       -0.12625287 -0.052444544 -0.0849345 0.013533952
000350 19 fe d0 3a d0 0c c5 bd 6b 74 11 bd d9 4a a8 bd
       0.0015944868 -0.096215844 -0.035511415 -0.08217401
000360 af 9c 25 3d b2 23 66 bd 92 06 e2 3d 2d bd bb 3d
       0.04043263 -0.056186385 0.110364094 0.09166942
000370 b8 5a c2 bd 55 b2 c0 3d 31 a4 ae 3d 68 b7 af bd
       -0.094899595 0.09409014 0.08527411 -0.08579904
000380 cc 01 f2 bd 73 b5 04 bd b3 a0 0b bd d0 70 76 3d
       -0.11816749 -0.032399606 -0.0340888 0.06016618
000390 ca 6a f2 3d b0 be ce 3d fb 22 e1 3c e4 12 d9 bd
       0.11836775 0.100949645 0.0274825 -0.10599306
0003a0 74 84 03 bd 84 09 b2 bb 78 60 5e bd 48 04 92 bd
       -0.03210874 -0.0054332633 -0.05429122 -0.07129723
0003b0 e8 c2 1d ba 77 0c b0 3d f7 c3 ef bc 62 29 ab bb
       -0.0006018118 0.085961275 -0.029268248 -0.005223439
0003c0 5a dd 0d 3d 93 8d ac bc 5e 55 00 3d fd a8 5d bd
       0.034634925 -0.021063602 0.031331412 -0.054116238
0003d0 21 40 09 3e 1c 8e cc 3d bb df 31 bc ee 4a ec bd
       0.1340337 0.09988043 -0.010856564 -0.11537729
0003e0 bd 79 63 3c 44 7b f8 bd 27 ee 9c 3c 46 83 91 bd
       0.013884005 -0.12132886 0.019156529 -0.071051165
0003f0 16 6d 8f 3d 17 c4 fc bd 48 1a b0 3d f8 04 0f 3e
       0.07003228 -0.12342089 0.08598763 0.13966739

sequential_16/conv1d_38/Conv1D f4 [128, 1, 5, 64]
000000 a4 ca 1c bd 06 87 64 bd 71 8d 6d 3d dc 52 b0 bc
       -0.03827919 -0.05579283 0.057996217 -0.021523885
000010 be 7a 39 bd c1 ca 67 bc 06 f0 89 3d b0 36 69 3c
       -0.04528307 -0.014147461 0.06735234 0.01423423
000020 60 3d aa 3b e5 26 64 3c b9 78 25 3d 9b ca 96 3d
       0.0051953048 0.013925289 0.040398333 0.07362863
000030 18 d9 20 bd 1a b9 9c bd c0 a4 58 3d b5 ca 18 3d
       -0.039269537 -0.07652493 0.052891493 0.03730269
000040 09 71 57 bd b1 ad 97 bd 4c 0f 86 bc 0d e4 22 bd
       -0.052598033 -0.07406176 -0.016364716 -0.039768267
000050 6a 1d 8e bc 75 02 17 3d b6 c4 8a 3d bd 00 ce bc
       -0.01734801 0.036867578 0.06775801 -0.025146836
000060 23 ef 08 bd 44 8e 85 bd a1 d6 25 3d c4 31 a8 bd
       -0.033431184 -0.06521276 0.04048789 -0.08212617
000070 ca fc 3c bc c9 5b 54 3d 7a 6b 8c 3d ad fb a0 bd
       -0.011534879 0.051845346 0.06856437 -0.07860503
000080 dc 26 ea bb 67 c0 90 3d dc b2 b2 bc 3e e3 56 bb
       -0.0071457457 0.07067948 -0.021813802 -0.0032789255
000090 4e a3 9d bd a9 79 8b bd 1c 6c e7 3c f1 a4 d1 3c
       -0.076971635 -0.06810314 0.028249793 0.025591346
0000a0 33 37 33 3d b0 4f b8 3d 21 3a f8 3c de 3b 66 bd
       0.043753814 0.08999574 0.030301156 -0.056209438
0000b0 23 c3 04 bd 21 b7 5f 3d 36 b2 34 3c 9c 45 d0 bb
       -0.03241266 0.054618005 0.011028817 -0.0063559543
0000c0 f0 9c 62 3d 54 08 56 3d d0 c2 95 bd aa 00 d8 3c
       0.05532545 0.052254036 -0.07312548 0.026367504
0000d0 30 6e 35 3d 98 8e 54 3d 6a 76 9c bd 45 a0 f3 bc
       0.044294536 0.0518938 -0.07639773 -0.029739508
0000e0 ab 79 25 bd 63 5e 90 bd 35 26 6c 3d d6 d9 36 bd
       -0.040399235 -0.07049253 0.057653625 -0.04464134
0000f0 cc 53 83 3a 12 da 72 3c 64 f3 5f 3d 1c d3 97 3d
       0.001001948 0.0148225 0.054675475 0.07413313
000100 1d 5c 5c bc 79 5e 2a bd 6c ae 13 bd 6d bd 93 bb
       -0.013449696 -0.041594002 -0.036055014 -0.0045086653
000110 0a e7 8d bc d9 a1 1b bc 80 7a 43 3d 7d 9d 23 3d
       -0.017322082 -0.009499037 0.047724247 0.039945114
000120 e8 c7 4c bd a5 ec a3 3c f0 a7 39 3d 90 f8 79 bd
       -0.049995333 0.020010302 0.045326173 -0.061028063
000130 73 02 80 bc 97 ae 3f 3d 3a 62 97 3c e2 04 51 3d
       -0.015626168 0.04679736 0.018479455 0.051030047
000140 f0 5a 90 3c 14 9a b7 3d 0b cf 92 3a 50 3b 99 bd
       0.017621487 0.08964935 0.001120062 -0.07482016
000150 88 84 80 3d 71 4c 4f 3d f1 2d 7d bd e8 52 50 3d
       0.06275278 0.05061001 -0.06181139 0.050860316
000160 7d 61 1c 3d 48 d0 17 bb 6e e5 c7 3c d9 21 0a bd
       0.03817891 -0.0023164917 0.024401393 -0.033723686
000170 5e 4e 93 bd f7 76 b6 3b 56 ef 60 bb 6c 30 90 bd
       -0.07192682 0.005568381 -0.0034322343 -0.07040486
000180 f1 6d 7f 3b 5f fc f9 3c bd 41 06 3d a7 4e a4 bd
       0.0038975442 0.030515848 0.032777537 -0.08022814
000190 48 f3 6c 3d 18 b0 a5 bd e6 a4 06 3d f6 3f 0a bd
       0.0578492 -0.08090228 0.032872103 -0.033752404
0001a0 c3 30 6d 3b 5a aa e2 3c 98 c9 0e bd 47 66 72 3c
       0.0036192394 0.02766912 -0.034860224 0.014794893
0001b0 ae cc 3f bd c4 f5 3e bd 7a 80 66 bd ff a3 98 bc
       -0.046826057 -0.0466211 -0.05627487 -0.018632887
0001c0 fe 46 c6 3c 57 b7 36 bd 53 ad 61 bc 04 50 37 3d
       0.024203774 -0.04460844 -0.013774234 0.044754043
0001d0 4d 7f d4 3c ea 16 f3 bc ae c0 77 3d 6b fe 38 3d
       0.025939608 -0.029674012 0.060486488 0.045164507
0001e0 f0 e0 c6 3b 94 1c f3 3a 75 16 82 bd 6e 61 a5 bc
       0.006069295 0.0018547946 -0.063519396 -0.02018806
0001f0 e9 ba 50 3d 91 f7 b0 3c 30 db dd bc 9c 86 74 3d
       0.0509595 0.021602424 -0.027082056 0.059698686
000200 2f 16 1a bd e6 ee 8d 3c 09 18 4e bd ff 88 01 bd
       -0.037618812 0.01732583 -0.05031589 -0.03162479
000210 89 5b bb bc 35 a8 4f 3d 2e be b8 bc 1c ed 7f 3d
       -0.022870796 0.050697524 -0.022551622 0.062481984
000220 02 18 8b 3d d5 ce 51 3d b6 60 6d 3c b0 b8 52 bd
       0.067916885 0.05122264 0.01448839 -0.051445663
000230 58 f4 80 3d ba e7 de bc dc 08 86 3d 66 98 86 3d
       0.06296605 -0.027210105 0.065446585 0.065720364
000240 0d f4 95 3d 61 11 72 3d 44 83 8c 3d 7e aa 44 3d
       0.073219396 0.059098605 0.068609744 0.048014157
000250 16 97 b4 bd a4 f6 8f bd c1 7f 8a 3c 61 78 36 3d
       -0.0881788 -0.07029465 0.016906621 0.044548396
000260 47 11 5f bd 87 c5 12 3d 7f 11 71 bd ba 3c b4 bc
       -0.054459836 0.035832908 -0.058854576 -0.022001613
000270 20 1b ac bb 4e ed 39 bd c1 4c 21 3d 9d c2 7e 3d
       -0.005252257 -0.045392327 0.03937984 0.062197316
000280 6a b8 b0 3d 4e 7c 60 bc 6f f1 62 bd f9 a4 0e 3d
       0.08628924 -0.013701512 -0.05540603 0.0348253
000290 64 a7 21 3b c8 96 96 3d e6 d4 1a bd 4c 15 10 3d
       0.0024666423 0.07352978 -0.037800692 0.03517656
0002a0 dd 5e 56 3d 95 3b 82 3d 98 ac 97 3d d5 26 5f 3d
       0.052336562 0.063590206 0.074059665 0.054480392
0002b0 14 56 be bc ef 88 70 bd c0 a4 66 bd 4c 33 77 3d
       -0.023234405 -0.05872434 -0.05630946 0.060351655
0002c0 d0 e7 27 3d e3 2a 8d 3d 6f 50 89 bd cc 1b 84 bd
       0.040992558 0.068929456 -0.067047946 -0.06450614
0002d0 dc 11 8b bd b3 b6 8e bb fb 0e 3d 3d 6c 97 77 bd
       -0.06790516 -0.0043552755 0.046156865 -0.06044714
0002e0 fc 76 2d 3d dd e8 a6 bc 71 64 84 bd 8f b9 47 3d
       0.0423498 -0.02037471 -0.0646447 0.048760947
0002f0 ea 09 7e bd 22 a8 94 bd 57 7c 44 3d 85 2f 96 3d
       -0.062021174 -0.07258631 0.047970142 0.073332824
000300 0b 31 0d bc 9c e0 76 3c 90 78 a1 bd d5 91 17 3d
       -0.00861765 0.0150681995 -0.078843236 0.03700431
000310 f0 d4 6d bc 23 a3 79 bb 2b 47 7b bc 04 a0 06 bd
       -0.0145161 -0.0038091622 -0.015336792 -0.032867447
000320 4d a7 bd 3b 97 f5 72 3d 5e f4 07 bd df ad 88 bd
       0.005787766 0.059316244 -0.03319203 -0.06673788
000330 43 c1 08 3c 5e 9f 8a bd e0 21 42 bb 88 3e ba bc
       0.008346858 -0.06768678 -0.0029622242 -0.022734895
000340 ee 1e 99 3d 4f ed 23 3d c6 9d 4a 3b 90 91 db 3c
       0.074766025 0.040021237 0.0030916794 0.026802808
000350 1a 18 78 3d 5f 4f 88 3d 70 1d 88 bd 79 f5 ac bd
       0.06056986 0.06655764 -0.0664624 -0.08445258
000360 11 30 17 3d a2 ef 71 bd 10 ab 8f 3b 1a 89 a2 bd
       0.036911074 -0.059066422 0.004384406 -0.07936306
000370 6e 16 64 bd dd cd 86 bb da 75 60 3c 4f a1 f3 bb
       -0.055685453 -0.0041138963 0.013699973 -0.007435001
000380 cd ea 85 3d 43 2c 9f 3c 51 4b 9a bc 4c 24 12 bd
       0.06538925 0.019430285 -0.018834742 -0.035679147
000390 85 00 0e 3b 48 42 ce 3c 5e 02 f8 bc 79 48 36 3c
       0.002166779 0.02517809 -0.030274566 0.011125677
0003a0 9f 65 b3 bb f8 d1 f6 3c bc d3 a0 3d 93 03 54 bd
       -0.0054747607 0.030129418 0.07852885 -0.05176122
0003b0 90 03 17 bb 02 fe 4b 3c 1f a7 a0 ba ac 47 3a bd
       -0.0023042895 0.012450697 -0.0012256837 -0.045478508
0003c0 2c bd 5d bc 4a de 58 3d 68 e9 31 bd 55 e4 0e 3d
       -0.013533872 0.052946366 -0.043435484 0.034885723
0003d0 3a 82 d5 bc 67 46 61 3d 74 35 aa bc 2a e6 89 bd
       -0.026063073 0.05499878 -0.020777442 -0.067333534
0003e0 40 25 69 3d c9 86 94 3b 55 6f be bb 13 28 71 3d
       0.05692029 0.004532669 -0.0058116117 0.05887611
0003f0 2e 18 eb bc 9f a3 1c bd 26 c3 11 bd 2d a7 5c bd
       -0.028698053 -0.03824198 -0.0355865 -0.05387037

sequential_16/batch_normalization_38/batchnorm/sub f4 [128]
000000 df 16 4e bf ac 59 45 bf 3c 66 16 bf ab 83 88 bf
       -0.8050365 -0.77089953 -0.5874975 -1.0665182
000010 0e 9b 61 bf 55 52 6a bf 04 d2 1f bf c8 9e 14 bf
       -0.8812722 -0.9153188 -0.62429833 -0.5805478
000020 13 92 88 bf 22 97 3b bf 5e ce 87 bf f1 ee 5e bf
       -1.0669578 -0.73277485 -1.0609853 -0.87083346
000030 02 69 87 bf 7f 5e 89 bf 8d ce 5a bf 45 68 84 bf
       -1.0578921 -1.0731963 -0.8547142 -1.034432
000040 c5 1c 82 bf 19 d1 5a bf 8e 22 19 bf 28 f2 9e bf
       -1.016503 -0.8547531 -0.5981835 -1.241765
000050 0c 4a 0b bf 58 d7 c0 bf 80 88 21 bf 6b bc 3c bf
       -0.5440986 -1.5065718 -0.6309891 -0.73725003
000060 1c 9c a5 bf ca 9c 30 bf d0 16 1e bf 1c 87 32 bf
       -1.2938266 -0.6898924 -0.6175356 -0.6973741
000070 14 4c 52 bf 59 f3 7c bf fb bf 5b bf a3 b4 0e bf
       -0.82147336 -0.9880882 -0.85839814 -0.5574438
000080 2c 08 23 bf 18 97 8c bf 72 cb 1a bf e0 41 32 bf
       -0.63684344 -1.098361 -0.6046668 -0.6963177
000090 be a4 81 bf df 99 67 bf 18 22 41 bf 1e 4a 0a bf
       -1.01284 -0.90469164 -0.7544265 -0.54019344
0000a0 64 82 22 bf 2f cc 40 bf 6b e0 52 bf 2c 40 68 bf
       -0.6348021 -0.7531156 -0.82373685 -0.9072292
0000b0 bc 28 2b bf d0 a6 4a bf 98 51 69 bf 0c b9 1d bf
       -0.6685903 -0.79160786 -0.9114013 -0.61610484
0000c0 e9 db 1f bf e5 19 2e bf 30 33 87 bf 40 1f 4d bf
       -0.6244493 -0.6800826 -1.0562496 -0.8012581
0000d0 8c a0 6f bf 25 1c 8a bf 42 e8 5c bf 3c 9e 71 bf
       -0.9360435 -1.0789839 -0.862919 -0.9438207
0000e0 50 68 69 bf a4 c7 3b bf 51 f5 5a bf eb 24 52 bf
       -0.91174793 -0.733515 -0.85530573 -0.8208758
0000f0 f2 22 5f bf 6e 22 41 bf 38 75 46 bf 61 10 8d bf
       -0.871627 -0.7544316 -0.7752261 -1.1020623
000100 73 ef 84 bf c0 39 8f bf 38 74 b9 bf 44 f8 8f bf
       -1.0385574 -1.1189499 -1.4488592 -1.124764
000110 1c 69 86 bf 2d a7 83 bf aa 94 66 bf d0 19 ab bf
       -1.0500827 -1.0285393 -0.90070593 -1.3367252
000120 eb b9 3b bf 1d 9f 29 bf 53 85 21 bf 4e 0d 04 bf
       -0.73330563 -0.6625841 -0.6309406 -0.515828
000130 28 f3 4e bf e0 93 62 bf 0b c0 57 bf ac 58 3b bf
       -0.80839777 -0.8850689 -0.8427741 -0.7318218
000140 9c e9 55 bf be 92 82 bf 76 65 64 bf 09 59 96 bf
       -0.83559585 -1.0201032 -0.8921732 -1.1745921
000150 99 eb 23 bf b9 f2 4a bf 84 d6 84 bf e0 c3 8e bf
       -0.6403137 -0.79276615 -1.0377965 -1.1153526
000160 d6 82 27 bf 74 bc 94 bf cb eb 86 bf 56 5f 22 bf
       -0.65434015 -1.1620011 -1.0540708 -0.6342672
000170 35 62 8f bf 7d 4f 31 bf b3 a6 16 bf 88 0b 58 bf
       -1.1201845 -0.69261914 -0.5884811 -0.84392595
000180 41 d1 15 bf 3d 37 6d bf 54 8f 76 bf 90 37 36 bf
       -0.5852242 -0.9266241 -0.9631245 -0.7117853
000190 ab dc 48 bf 3d 67 94 bf 4b 1c 23 bf 7e e5 2d bf
       -0.7846171 -1.1594006 -0.63715047 -0.679283
0001a0 99 df 25 bf d2 1e ab bf 37 3c 3b bf 78 9c 6f bf
       -0.6479431 -1.3368781 -0.73138756 -0.9359813
0001b0 ee 77 8c bf 22 4d 3d bf 0c 54 43 bf fa 5a 44 bf
       -1.09741 -0.7394582 -0.7630012 -0.7670132
0001c0 bd 7d 65 bf f3 e3 95 bf 96 1f 2d bf 1c 0f 4e bf
       -0.89644986 -1.171019 -0.6762632 -0.80491805
0001d0 e3 1d 89 bf 4d 50 68 bf f0 0a 43 bf bd 7b 79 bf
       -1.0712246 -0.9074753 -0.76188564 -0.97454435
0001e0 ce 1a 6d bf 16 10 12 bf 48 41 74 bf f6 58 5e bf
       -0.92619026 -0.57055795 -0.9541211 -0.86854494
0001f0 aa ef ca be 1a 74 74 bf df b6 22 bf 09 97 2a bf
       -0.39635974 -0.95489657 -0.6356029 -0.6663671

sequential_16/batch_normalization_38/batchnorm/mul f4 [128]
000000 00 c5 fa 3f ca d0 06 40 76 76 91 3f a6 2c 23 40
       1.959137 2.1064935 1.1364276 2.5496001
000010 73 34 ee 3f 30 8a ef 3f 26 6d 7f 3f a3 be c0 3f
       1.8609756 1.8714046 0.9977592 1.5058178
000020 34 d2 f1 3f f9 10 b4 3f 34 2e db 3f 55 13 17 40
       1.8892274 1.406768 1.7123475 2.360555
000030 bd 9a c1 3f 44 ab 1d 40 a9 6a 9a 3f d3 f7 0c 40
       1.5125347 2.4635782 1.20638 2.202626
000040 8d c6 b1 3f 95 63 15 40 ec 3d b7 3f 0c 0d dc 3f
       1.3888718 2.334203 1.4315772 1.7191482
000050 97 11 90 3f 93 18 b6 3f 20 a7 a1 3f 37 11 c3 3f
       1.1255368 1.422625 1.2629128 1.5239629
000060 c0 44 d5 3f 41 52 f6 3f 72 c4 8a 3f 0b 35 c1 3f
       1.6661606 1.9243852 1.08412 1.5094312
000070 45 6a d3 3f 56 36 c9 3f d6 a6 8e 3f a2 94 ba 3f
       1.6516806 1.5719707 1.1144664 1.4576609
000080 a1 ba 3c 40 f1 b4 cd 3f 0f f9 9d 3f 82 1a a4 3f
       2.948891 1.6070844 1.2341632 1.282059
000090 bb de e4 3f b1 87 c8 3f f3 40 9e 3f 82 b4 5d 3f
       1.7880472 1.566641 1.2363571 0.8660356
0000a0 b5 b9 80 3f 25 f9 8f 3f c7 98 91 3f 23 0c bb 3f
       1.0056673 1.1247908 1.1374749 1.4613079
0000b0 89 11 b0 3f 3a 6e f0 3f f8 9b c0 3f 06 cb 83 3f
       1.3755351 1.8783638 1.5047598 1.0296333
0000c0 fa 10 fe 3f 04 21 b3 3f a5 be 93 3f e0 6f f2 3f
       1.9848931 1.399445 1.1542555 1.8940392
0000d0 4d 94 cd 3f 2a d8 e4 3f 51 e9 98 3f 68 00 0e 40
       1.6060883 1.7878468 1.1946203 2.2187748
0000e0 1b d5 c2 3f 30 31 72 3f 55 38 f9 3f ce 57 c7 3f
       1.5221285 0.94606304 1.9470316 1.5573671
0000f0 a2 9e ff 3f 11 39 c2 3f 51 3f 86 3f 96 d7 d3 3f
       1.9970286 1.5173665 1.0488073 1.6550167
000100 10 41 b5 3f 8f 6c a4 3f 74 90 d0 3f 7a d8 fa 3f
       1.416048 1.284563 1.6294084 1.9597313
000110 c0 1a e3 3f 03 74 d7 3f 32 3c 0c 40 1f 85 10 40
       1.7742538 1.6832279 2.191174 2.258125
000120 15 12 ea 3f 7b d9 74 3f a8 31 40 3f 7d c9 93 3f
       1.8286768 0.9564435 0.7507577 1.1545864
000130 06 3e cd 3f 60 0b 06 40 25 06 a0 3f 4b a3 ad 3f
       1.6034553 2.0944443 1.2501875 1.3565458
000140 36 9d bd 3f 7e 61 cd 3f b7 29 92 3f 45 cb 31 40
       1.4813602 1.6045377 1.141898 2.7780316
000150 52 db 7b 3f 65 24 c5 3f de 66 06 40 97 ab a6 3f
       0.9838153 1.5401732 2.1000285 1.3021115
000160 cf 14 83 3f 9f 25 c4 3f 26 e7 a1 3f 11 62 3f 3f
       1.0240725 1.5323981 1.2648666 0.7475901
000170 af 42 e9 3f cd fc 9a 3f 9c f4 be 3f 3f a4 00 40
       1.8223475 1.2108399 1.4918399 2.0100248
000180 b5 0f a4 3f 73 df e1 3f a7 82 a4 3f 5a ab 9d 3f
       1.2817293 1.7646316 1.2852372 1.2317917
000190 1e 50 e9 3f 57 37 cf 3f 19 cd a5 3f 38 fd 86 3f
       1.8227575 1.6188763 1.2953216 1.0546026
0001a0 a2 db d2 3f e6 fb ec 3f 81 2d 82 3f c4 4b 9e 3f
       1.6473277 1.8514373 1.0170137 1.2366872
0001b0 19 26 02 40 80 b5 41 40 71 c8 d5 3f 1c 57 bc 3f
       2.0335753 3.026703 1.6701795 1.4714084
0001c0 dc f2 80 3f 18 c6 ba 3f 80 14 cb 3f 32 a9 ce 3f
       1.0074115 1.4591703 1.5865631 1.6145384
0001d0 bf f3 4a 40 e7 9f ed 3f 8a 65 d3 3f 1e 38 01 40
       3.171127 1.8564423 1.6515362 2.0190501
0001e0 d8 17 af 3f dd 86 32 3f 61 f9 05 40 f0 4a c6 3f
       1.3679152 0.69737035 2.0933459 1.5491619
0001f0 dc e0 95 3f c8 87 03 40 36 80 96 3f 24 62 c3 3f
       1.1709247 2.0551624 1.1757877 1.5264325

sequential_16/batch_normalization_37/batchnorm/sub f4 [64]
000000 5e 8a 04 bf c9 69 1e bf 30 f6 00 bf 3c 11 0d bf
       -0.5177363 -0.61880165 -0.5037565 -0.5510442
000010 20 be 3b bf f0 01 5c bf dc f1 03 bf ca 5c 86 be
       -0.7333698 -0.85940456 -0.51540923 -0.26242667
000020 14 11 48 bf 53 0c 12 bf 33 a3 01 bf bd da 0f bf
       -0.7815106 -0.57050055 -0.5063965 -0.56193143
000030 13 54 04 bf a3 a7 0b bf f2 2c 12 bf fe 02 0e bf
       -0.5169079 -0.5455267 -0.5709983 -0.55473316
000040 0e b2 9b be 9d 20 37 bf 47 3c 1a bf d5 a9 0c bf
       -0.30409282 -0.7153414 -0.60248226 -0.54946643
000050 a9 85 88 be 01 92 0e bf d1 a6 d8 be e1 c5 09 bf
       -0.26664475 -0.55691534 -0.4231477 -0.53817564
000060 a6 58 68 bf 78 64 d3 be ea f0 19 bf 14 ae 31 bf
       -0.90760267 -0.4128759 -0.6013323 -0.6940625
000070 36 9a 14 bf f5 9e 0b bf e9 04 12 bf bf ba 82 be
       -0.5804781 -0.54539424 -0.5703874 -0.255331
000080 e0 a0 6d bf 29 11 01 bf 8a a5 0b bf 81 de 08 bf
       -0.928236 -0.5041681 -0.5454947 -0.53464514
000090 f3 2f 12 bf e7 de 06 bf 32 60 ed be 5c 19 d3 be
       -0.57104415 -0.5268387 -0.46362454 -0.41230285
0000a0 11 57 0c bf 9f f3 60 bf b0 c5 3f bf 92 25 02 bf
       -0.5482035 -0.87871736 -0.7491102 -0.5083858
0000b0 d2 c6 57 bf 9a b7 01 bf 2e fe 66 bf 83 87 e4 be
       -0.8428775 -0.5067078 -0.902316 -0.44634637
0000c0 37 66 02 bf 6e eb 47 bf 27 7f a9 be 5a f3 07 bf
       -0.5093722 -0.7809361 -0.33104822 -0.531057
0000d0 e7 b5 f0 be 5d 15 28 bf 21 ca 15 bf ce 83 3a bf
       -0.4701378 -0.656576 -0.5851155 -0.7285737
0000e0 40 1d 0c bf 5c 82 2f bf 99 89 34 bf 55 f9 f0 be
       -0.5473213 -0.6855829 -0.7052246 -0.47065225
0000f0 27 03 31 bf 81 b4 e6 be ac 8f 76 bf 8d 17 04 bf
       -0.69145435 -0.4505959 -0.96312976 -0.51598436

sequential_16/batch_normalization_37/batchnorm/mul f4 [64]
000000 e1 fd 96 40 7a d4 fb 40 bf 29 94 40 fd 84 ee 40
       4.718491 7.869687 4.630096 7.453734
000010 56 6f fe 40 c6 a5 25 41 92 38 02 41 56 ff 98 41
       7.951091 10.352972 8.138811 19.124676
000020 5d 44 70 41 23 97 89 41 21 4f 18 41 67 23 d6 40
       15.01669 17.198797 9.519319 6.6918216
000030 df 80 18 41 cf 65 b3 40 73 70 30 41 79 61 30 41
       9.531463 5.606178 11.027453 11.023797
000040 36 e0 a1 41 48 25 88 41 e0 2d e0 40 ff 26 17 41
       20.234478 17.018204 7.0056 9.447021
000050 d2 3a 8c 41 c7 d5 cc 40 64 92 9a 41 39 fa 6e 40
       17.52872 6.401096 19.32148 3.7340224
000060 1d d1 40 41 18 48 4c 41 ed 4e 91 41 83 7e 6c 41
       12.051053 12.767601 18.163538 14.780887
000070 dd da ff 40 ee 6d 95 40 55 57 05 41 50 63 b0 41
       7.9954667 4.669669 8.333821 22.048492
000080 a3 c3 1f 41 e3 78 7f 40 07 15 9b 41 91 76 10 41
       9.985263 3.9917533 19.385267 9.028947
000090 da 02 86 41 69 5f d1 40 12 12 4f 41 36 9f 75 41
       16.751392 6.5428967 12.941912 15.35137
0000a0 83 93 c5 40 b4 a4 0a 41 62 fa 71 41 8c eb c6 40
       6.174257 8.665211 15.123629 6.2162533
0000b0 e8 cf 75 41 c3 b4 98 40 7b 0e 43 41 37 89 82 41
       15.363258 4.7720656 12.191035 16.317
0000c0 13 89 29 41 27 fc 20 41 d6 34 97 41 3b 1c d3 40
       10.595965 10.061561 18.900799 6.597196
0000d0 4c 1e 81 40 46 11 10 41 6f ba 06 41 ad 42 58 41
       4.0349483 9.004217 8.420516 13.516278
0000e0 90 4a d4 40 0e de 45 41 d5 6f 11 41 9d 4f 14 41
       6.634102 12.366713 9.089803 9.269437
0000f0 71 9a 81 41 e4 1a 42 41 00 99 1c 41 56 94 08 41
       16.20041 12.131565 9.7873535 8.536215

sequential_16/dense_32/BiasAdd/ReadVariableOp f4 [32]
000000 ed 49 ee bc bc b4 2d bb 0c 04 43 bd 5e 31 58 3c
       -0.029087985 -0.002650543 -0.04761128 0.013195364
000010 70 03 e8 bc ba 3b b4 bc 0b 9c 91 bc 42 a7 d8 3c
       -0.028321952 -0.022001136 -0.017774602 0.026446942
000020 fa 10 7b bc c9 da 36 3d 40 95 5f bc bc 95 93 bc
       -0.015323872 0.044642244 -0.013646424 -0.018015735
000030 9d 4c dc bb 0e fb 94 bc 8d 55 9a bc 37 d6 50 3c
       -0.006723 -0.018186118 -0.018839622 0.012746385
000040 27 78 b6 bc d2 6a 02 bd cd 02 51 3d fe 8e 36 3c
       -0.02227409 -0.031840153 0.05102806 0.01114249
000050 8c f0 e1 bc 30 2a 9a bc c1 20 46 3d ab 17 f7 3b
       -0.027580522 -0.018818945 0.04837108 0.0075406632
000060 a8 5d 2e 3d 56 0a 34 3d 73 04 04 3d 73 d3 00 bd
       0.042569786 0.04395517 0.032230806 -0.031451654
000070 83 62 8f bc 7c 47 ec bc e9 b5 85 bc 79 9e 0d 3d
       -0.017503029 -0.02884268 -0.016322093 0.03457496

sequential_16/dense_32/MatMul f4 [32, 64]
000000 ab 4b 01 be 9a 0c 78 be 9e 63 47 bd b3 5d dd bd
       -0.12626521 -0.24223557 -0.048678987 -0.10808887
000010 c5 52 78 bd 9b 72 bb 3d e0 f7 48 be 54 cb 06 bd
       -0.06062581 0.09152719 -0.19625807 -0.032908753
000020 42 09 7d bd bb 28 b7 bd 4a 5b 36 3d 0b 2d 14 bd
       -0.061776407 -0.089433156 0.044520654 -0.03617577
000030 bf 1d 75 3e b6 db a2 3d a8 75 5c be 97 27 46 3e
       0.23937128 0.07952063 -0.21529257 0.1935104
000040 4f 8d 38 bd c5 22 95 3d dd f1 1e be b0 5a eb 3d
       -0.045056637 0.072820224 -0.15521951 0.11491907
000050 19 17 a4 3d 7d 1e 28 be 97 19 86 3d 9a 09 30 bb
       0.08012218 -0.1641788 0.065478496 -0.0026861192
000060 42 40 70 be 4d 3d ca bd ae 3f 06 3c c0 77 be bd
       -0.23462012 -0.098749734 0.008193893 -0.09300184
000070 5a 30 51 3e 5b 64 43 3e 26 cc 6f be 58 ec 3a 3e
       0.20428601 0.19081251 -0.2341772 0.1825422
000080 1a 8e 3e be 9a 6c 08 be e9 fa 99 3d ff 0c eb bd
       -0.18608895 -0.13322678 0.075185604 -0.11477088
000090 e9 40 25 3e 46 70 5a 3e 5f 53 7c 3d 7b 81 0b be
       0.16138043 0.21331891 0.061602946 -0.13623612
0000a0 3a bc 70 3e 9f 45 2b 3e a5 5e 69 be 8f a8 32 3d
       0.23509303 0.16725777 -0.2279001 0.04361778
0000b0 82 e7 00 be ae b9 6c be 0a 5b 1a 3e 10 95 77 bd
       -0.12588313 -0.23117706 0.15073791 -0.06044489
0000c0 5e 99 96 3c 9e 87 cb bd ad 82 a3 bd 85 72 4c be
       0.018383678 -0.09937976 -0.07983909 -0.1996556
0000d0 ad 43 bf 3c a5 56 1f be d9 ed 99 bd 2f 21 66 3e
       0.0233477 -0.15560396 -0.07516069 0.22473596
0000e0 a3 9f 6d 3e d0 62 04 bd ca be 1e be ac d1 1a 3e
       0.23205428 -0.032320797 -0.15502468 0.15119046
0000f0 ce ae 3e be 93 2c 76 3e 8b 28 33 3e e5 78 ed 3c
       -0.1862137 0.24040441 0.17495935 0.028988311
000100 5a 98 61 be b9 3e 7a be ba 7b 1c be 5c 5a 53 be
       -0.22030774 -0.2443799 -0.15281573 -0.20639938
000110 03 91 1e 3d f1 4f 24 3e 32 30 14 bd 95 f8 29 be
       0.038712513 0.1604612 -0.036178775 -0.16598733
000120 73 ee c4 3d 91 7a 2f 3e db 37 7b be ad 70 1d be
       0.09615793 0.17136599 -0.24533026 -0.15375014
000130 ea 3d 81 3c c5 aa 0f be 15 0f 51 be 19 2e 94 3c
       0.015776593 -0.14029987 -0.2041591 0.018088387
000140 22 44 bf 3d 86 78 6e be 1f 94 30 bc e1 b3 e0 bd
       0.09339167 -0.23288164 -0.010777502 -0.10971809
000150 66 e4 3c be 7e 08 16 be 6c fd 3b 3e 92 bb 20 bd
       -0.18446502 -0.14651677 0.18358392 -0.03924138
000160 b0 a3 0b 3d 23 6c 10 3e 36 33 ac 3d 21 d4 dd bd
       0.03409165 0.14103751 0.08408205 -0.10831476
000170 53 c8 c1 bb 32 c1 d1 bd 90 71 d2 3d 6c 3b 8f bc
       -0.005913773 -0.10241927 0.102755666 -0.01748439
000180 da 19 3c be af 8c ea bd 4f da e0 3c ac 1d 82 3e
       -0.18369237 -0.114526145 0.027447848 0.25413263
000190 3d ed aa 3d e2 63 f1 bd ac 89 01 3e 19 8a 69 be
       0.08346031 -0.11786629 0.12650174 -0.22806586
0001a0 c6 ba 49 3e b1 af 8a 3d 42 6f 28 be 44 d1 d3 bd
       0.19700155 0.06771792 -0.16448691 -0.103426486
0001b0 e6 82 ac bd 58 19 5b be ed d3 68 be 49 97 aa bb
       -0.084234044 -0.21396387 -0.22737093 -0.005206023
0001c0 1a e8 26 be 2c e2 60 3e 54 d4 6d bc 75 3d 6f bd
       -0.16299477 0.21961278 -0.014515955 -0.05840822
0001d0 af 4a c0 bc 33 9e 7c 3e 35 14 c8 3d 25 a4 36 be
       -0.023473112 0.24669723 0.09769479 -0.17836054
0001e0 bf 42 30 be d5 25 16 be 00 ea 97 bc 44 de 62 be
       -0.17212962 -0.1466287 -0.018544197 -0.221551
0001f0 e5 3a 62 bc 8d 66 b2 bd 94 6c bb 3d be bf eb bd
       -0.013807987 -0.08710966 0.09151569 -0.11511181
000200 26 f2 66 3e 01 43 d6 bd 0a 8b af 3d 99 cb 36 bd
       0.2255331 -0.10461999 0.085714415 -0.04462776
000210 2a 1b 2e be 77 37 10 be 9e 02 43 3e ba e3 e8 3c
       -0.1700255 -0.14083658 0.19043967 0.028428901
000220 e8 c9 4e 3e 34 34 02 be 1c 93 f2 bc ce b2 3c 3e
       0.20194209 -0.12715226 -0.029611163 0.18427584
000230 b8 7a fe 3c bc 9e 3a be 34 af f9 3c 62 a0 2a 3e
       0.031064376 -0.18224615 0.030479051 0.16662744
000240 6e 88 4d be 32 9a 57 be c5 30 2d be 91 eb 1c 3e
       -0.20071575 -0.21054915 -0.16913135 0.15324236
000250 02 8a 05 bd 55 e1 1c 3e 1f e7 20 3e b8 43 26 3e
       -0.032602318 0.15320332 0.15713166 0.1623677
000260 b2 58 07 be 69 d7 92 3c a1 08 82 be f3 62 44 3e
       -0.13217428 0.017924981 -0.25397208 0.19178371
000270 53 88 9d bd a7 1c 45 3e 4e f6 61 3e b0 86 6d bd
       -0.076920174 0.19249211 0.22066614 -0.057989776
000280 93 d6 91 3c ae 0e ae bd c9 0c 6f be 8e c8 d7 3c
       0.017802512 -0.08498894 -0.23344721 0.02634075
000290 9f 1a 60 3d a1 0e a9 bd 29 5b 31 be 04 f7 59 be
       0.054712888 -0.08254743 -0.17319931 -0.21285635
0002a0 b8 bc fd 3d 92 42 40 3e 2a 14 8a be fa 5b 57 3e
       0.12389511 0.18775395 -0.2696851 0.2103118
0002b0 e2 37 02 bd d3 e1 82 be f9 19 77 be 67 95 55 3e
       -0.031791575 -0.25562915 -0.24131002 0.20857774
0002c0 80 96 69 be 9a 93 5b be 93 96 9b 3d d1 6c 4b be
       -0.22811317 -0.21443024 0.07597079 -0.19865729
0002d0 f4 6f 02 3e e7 64 2d be 78 c9 91 3d 52 d8 48 3e
       0.12738019 -0.16933022 0.07118505 0.1961377
0002e0 64 2e fe bc 32 f0 92 bd 5e ef 49 3e 5b 11 d6 bd
       -0.03102798 -0.0717472 0.19720218 -0.10452529
0002f0 5f 53 2c be 29 c4 10 3e e5 4b 0d be ab 3a df bd
       -0.16828679 0.14137329 -0.13798483 -0.10899862
000300 2b c9 1b be 9e 4b 3f be ff 8d 9e bd ef fa 05 3e
       -0.15213458 -0.1868119 -0.07741927 0.13084005
000310 d8 2a e5 3d 82 f3 dc 3b e1 87 13 3e e7 5d 58 3e
       0.111898124 0.0067428956 0.14407302 0.21129571
000320 30 6a 50 be d0 17 84 be 63 49 77 be a5 c9 a1 3d
       -0.20353007 -0.25799417 -0.24149089 0.07899789
000330 5c 1e 24 3c 8b 36 50 3e 52 52 75 3e 42 fe 61 3e
       0.010017004 0.20333306 0.23957184 0.22069648
000340 97 ac 00 be a7 e5 6c be 43 1c 69 bc a7 b7 c9 3d
       -0.12565838 -0.2313448 -0.0142279295 0.09849482
000350 91 dd 1b 3e 0a b1 38 be 97 3b 20 3c cb 4d 81 be
       0.1522124 -0.18036285 0.009779832 -0.25254664
000360 e4 56 69 be 31 61 82 be 29 97 ea bd 5c d2 5a be
       -0.22787052 -0.25464776 -0.11454613 -0.21369308
000370 1e 41 1e bd 56 83 44 be 3f 94 51 be 50 24 7b bd
       -0.03863632 -0.19190726 -0.20466708 -0.061313927
000380 38 38 e1 bd cc 64 4e bc 67 d2 06 be 6b 1c 33 be
       -0.10997051 -0.012597274 -0.131662 -0.1749131
000390 99 4f 37 3e 4c 01 3b 3d 8b 3b 2b be 7b 45 0b 3e
       0.17901458 0.045655534 -0.16721933 0.13600723
0003a0 a1 1b b1 bd bc 19 d8 bd de b7 6f be 9d 6b 13 3e
       -0.08647848 -0.105517834 -0.23409984 0.1439652
0003b0 1d b0 00 be 2e e1 41 3e 1f 86 5b bc a6 30 59 3d
       -0.12567182 0.18933555 -0.013398676 0.05302491
0003c0 ea b3 72 3e c3 b2 e3 3d f5 c4 5a 3e 73 2c 39 3d
       0.23701444 0.111180805 0.21364196 0.045208406
0003d0 2d 14 b2 3d d2 49 51 3e 5d ee c3 bd e4 61 18 3e
       0.086952545 0.20438316 -0.095669486 0.14881092
0003e0 e4 c0 10 3e a9 12 b1 3d 1d f8 9a bd 91 96 02 3e
       0.14136082 0.08646137 -0.07566855 0.12752749
0003f0 26 7a 3f be 1b a7 f4 3d b6 30 4c be 4a d8 c8 3d
       -0.1869894 0.11945935 -0.19940457 0.09806879

sequential_16/dense_33/MatMul f4 [1, 32]
000000 b5 b6 2c be 96 e1 b8 be 3a d4 87 bd 3b 96 6b 3e
       -0.16866572 -0.36109608 -0.06632276 0.23006527
000010 6d ec 42 be ee c2 a3 be b7 68 c7 be 1c db 17 3d
       -0.19035502 -0.31984657 -0.3894708 0.037074193
000020 ff d9 9b 3e 08 e9 28 3e dc 07 87 be d9 bf 12 3e
       0.30439755 0.16495144 -0.26373184 0.14330997
000030 65 06 8d 3e 9b 53 98 be e9 d2 8f bb 0d 21 b3 3d
       0.2754394 -0.29751286 -0.004389156 0.08746538
000040 a0 67 dc bd 8f 1a 49 be 11 da 8b 3e 97 65 ad 3e
       -0.107619524 -0.19639038 0.2731481 0.3386657
000050 85 b3 cb bd 83 aa a6 bd aa 25 80 3e d5 59 83 3e
       -0.0994635 -0.08137991 0.25028735 0.25654474
000060 cd b3 ab 3e 48 0a 9c 3d 93 75 53 3e 97 3e cf bd
       0.33535615 0.076191485 0.2065032 -0.1011936
000070 36 8f 95 be c7 01 e8 bc 11 42 51 be 9e 85 71 3e
       -0.29210824 -0.02832116 -0.20435359 0.23586127

sequential_16/gru_41/while/gru_cell_30/unstack f4 [384]
000000 83 07 1d bc 72 c3 08 3b 05 e8 64 bc 40 e4 da ba
       -0.00958431 0.0020868448 -0.013971333 -0.0016700104
000010 42 f5 de ba fa 8c fc 3b 56 08 ef 3c 79 f0 51 bc
       -0.0017010348 0.0077072354 0.02917878 -0.012813681
000020 a3 5d 0c bc fe 9f db bb 38 44 3f bc bb 73 af ba
       -0.008567247 -0.006702422 -0.011673979 -0.0013385931
000030 94 36 20 bb d8 d4 3d 3b 3b 7d 3d bc 82 3c b0 3c
       -0.0024446594 0.0028965976 -0.011565502 0.021513227
000040 ef 69 99 bb e8 c2 f9 3b 50 79 92 bc 4f b9 58 bb
       -0.0046818177 0.0076221116 -0.017880112 -0.0033069437
000050 1d be 34 3c 2e ae 0a bc 8a 18 95 3c 53 fd 80 3b
       0.011031655 -0.008464379 0.018200178 0.0039364486
000060 04 62 bf 3a 85 47 6a bd e1 62 d6 3b 0f 50 ea bb
       0.0014601354 -0.057197113 0.006542549 -0.007150657
000070 56 94 9d bc 3b 68 a0 bb 33 d0 97 3a 41 6a e3 3b
       -0.019235771 -0.0048952377 0.0011582434 0.0069401567
000080 e9 cc aa bb 5e 54 bf bb 33 d0 2b 3c c4 a0 76 bb
       -0.0052124155 -0.005838915 0.01048665 -0.0037632445
000090 4e 5a 34 3c 29 24 2f 3c c7 02 86 bc 8d 02 13 3c
       0.011007858 0.010689774 -0.016358746 0.008972776
0000a0 ae 53 c1 bb 9b ca c9 bb 8a a5 fb 3a 8c 4e c8 bc
       -0.005899868 -0.0061581857 0.0019199115 -0.024451517
0000b0 1f 77 31 bc 6a e1 0b 3b 3e 75 46 3b 76 ea 4a bc
       -0.010831623 0.0021344074 0.0030282284 -0.012385001
0000c0 96 33 fe bb 33 5d ce bb d9 b3 88 bb 87 9c 07 bb
       -0.0077576144 -0.0062977313 -0.00417183 -0.0020692663
0000d0 dc a2 2c 3c 58 7d bc bb 56 c9 80 bb d9 82 4d bc
       0.010536876 -0.005752247 -0.003930251 -0.012543404
0000e0 d3 97 13 3c eb 51 1c 3b 36 1e b2 3b b7 2a 85 3c
       0.009008366 0.0023852538 0.0054357303 0.01625572
0000f0 99 e4 27 bc 6f 10 cc ba d4 5f a4 ba d3 da 85 3b
       -0.010247373 -0.0015568862 -0.0012540766 0.004084924
000100 ce f1 57 bb 7f 24 08 bb 13 11 39 bc a0 1a 7b bc
       -0.0032950523 -0.0020773706 -0.011295575 -0.015326172
000110 c7 42 5b 3c 4e 18 09 3c af e7 23 bc d1 04 93 3c
       0.01338262 0.008367611 -0.010003968 0.017946633
000120 11 c4 dc b9 28 ab 0d bc 82 7f 56 bc c7 e1 2e 3d
       -0.0004210775 -0.008646764 -0.013091924 0.042695787
000130 a3 e6 4d 3c ca 2b 85 3b 65 09 94 3c e3 3d ac bb
       0.012567195 0.004064058 0.018070886 -0.005256401
000140 a5 8e 4d bc 3a 48 12 3c 52 3b 87 bb 1a 19 0e 3c
       -0.012546216 0.008928353 -0.0041269446 0.008672977
000150 f2 07 75 bc 15 f6 7f bc 99 b4 4a bc 2a be 52 bc
       -0.014955508 -0.015622635 -0.012372159 -0.012862721
000160 90 49 71 3b fa be 85 bb 7d 77 04 3c ac ec 5a 3c
       0.0036817528 -0.004081604 0.008085129 0.013362091
000170 9a 82 a9 3b f7 5a 19 3b 20 a6 42 3b 8a 3e 56 3c
       0.0051730396 0.0023400167 0.002970107 0.013076434
000180 91 93 c0 bb 97 74 f0 bb 62 cb 83 3b 1a a3 91 bc
       -0.0058769663 -0.0073381173 0.004022048 -0.017777968
000190 e0 b5 35 3c 62 95 b4 b9 48 3a dd bb f6 f2 1a bb
       0.011090726 -0.00034443574 -0.0067513324 -0.002364335
0001a0 4e 22 79 bb 25 ae 91 3a 83 a7 95 ba d3 9d f4 3b
       -0.0038014832 0.0011114521 -0.001141772 0.007465103
0001b0 68 c7 2f 3c 72 43 9f b7 f6 36 52 3c 85 27 20 bb
       0.0107286945 -1.8985684e-05 0.0128304865 -0.0024437618
0001c0 75 76 41 ba bd 05 92 bb a2 a4 1b 3c 4f ba 1a b9
       -0.0007380017 -0.0044562505 0.009499701 -0.0001475599
0001d0 0c 0f 67 bc 84 ab 08 bc 19 46 da 3b 63 b4 16 3c
       -0.014102709 -0.008341674 0.0066611883 0.009198281
0001e0 db ac 4b 3b 38 60 1b 3b 35 b1 3a bc c5 db 94 3a
       0.0031078372 0.0023708474 -0.0113947885 0.0011357
0001f0 9c 22 20 bb be 3f 69 3c 37 96 ec bb f9 a4 ad 3b
       -0.0024434691 0.014236389 -0.0072200554 0.0052992073
000200 9a 0b 89 bc 2c 0c b3 bb 1b 2c 9b bc 36 6f 81 bc
       -0.016729165 -0.0054640975 -0.01894193 -0.0158001
000210 7a 6a 62 3c 09 a5 3f 3b b4 9f cb 3a 3a 08 04 bb
       0.013819331 0.0029242656 0.0015535266 -0.0020146505
000220 30 e1 81 bc af b5 9c bc 32 f4 81 bc fe 4e bd 3b
       -0.015854448 -0.019129602 -0.015863512 0.005777239
000230 30 0c 46 bc b6 7c a9 bc 4d d6 0f bc 43 03 53 ba
       -0.012087867 -0.02068935 -0.008779121 -0.0008049497
000240 2a f6 78 3a b5 48 49 bb bb cc ed ba dc 62 b9 bc
       0.00094971305 -0.0030713503 -0.001814268 -0.022630148
000250 c9 c5 bc ba b5 30 d3 bb 9d bb 68 bc a3 69 85 3c
       -0.0014402206 -0.0064450153 -0.014204887 0.016285723
000260 cf 10 33 3c 57 a4 9b 3c 76 5c 57 3b d9 ad 03 3c
       0.0109293 0.018999262 0.0032861507 0.008037054
000270 00 6f a7 3a 0e b0 a1 3c 4b 3d bf 3b f2 7d c0 bc
       0.001277417 0.01973727 0.005836164 -0.023497555
000280 60 a2 64 3b 5b ca 0e bc a0 c0 05 bb 3c 99 a5 3c
       0.0034886822 -0.0087152375 -0.0020409003 0.02021467
000290 7b 96 92 3c 1a 0f af 3a b4 6a 18 bc ba 34 0f 3b
       0.01789402 0.0013355941 -0.009302784 0.0021851496
0002a0 a9 69 58 3c 4c 7f b9 3c ca 97 63 3b df bb cb bb
       0.013208785 0.022643708 0.0034727925 -0.0062174643
0002b0 99 d7 6d bc b0 f4 39 bb 15 bb 80 bc 31 5b 18 bc
       -0.0145167345 -0.0028374605 -0.015714208 -0.0092990855
0002c0 ca 19 95 bc 60 eb 00 3d 28 d4 43 3c b9 51 a6 3b
       -0.018200774 0.03147447 0.011952437 0.00507566
0002d0 82 4b ed bb 97 10 88 3b 01 4f 2f ba 4a 43 5f 3c
       -0.0072416672 0.0041523683 -0.0006687493 0.013626883
0002e0 e1 b5 2d 3c 73 a4 0a 3c 1b e7 20 bc f7 42 ad 3c
       0.010602445 0.008462059 -0.009820725 0.021150095
0002f0 98 48 78 b8 38 66 0b bc 0f c3 da 3b a2 de 75 bc
       -5.9195416e-05 -0.008508258 0.006676085 -0.015006693
000300 24 2c d1 bc fb 56 8a 3a b4 33 30 3c bf 4d df bb
       -0.025533743 0.0010554487 0.0107545145 -0.006814688
000310 da d9 93 bb 1e 5a 57 3c c2 57 bf 3b fa b2 19 bb
       -0.004512054 0.013144044 0.005839319 -0.0023452626
000320 19 13 98 bc 95 1a 99 3c 0e 0e b3 3a 93 0e 50 bc
       -0.018563794 0.018689433 0.0013660805 -0.012698787
000330 75 22 1a 3c 9d 41 7f bb e2 7f 71 3a a8 fb 8b 3c
       0.009407629 -0.003894902 0.00092124764 0.017087772
000340 f4 a6 76 bc 82 f2 7f bc 1f f3 d3 3b 7f cd c6 bc
       -0.015054453 -0.015621783 0.0064681913 -0.02426791
000350 55 66 e8 ba 2d 8e 48 bb fa ea 45 3c cb a2 5d 3c
       -0.0017730693 -0.0030602321 0.012079949 0.013527582
000360 7e 30 90 bb 82 84 9b bc 18 d6 62 3b 5a 8e 2a 3b
       -0.004400312 -0.018984083 0.0034612473 0.002602479
000370 eb 98 05 bc 02 3b 52 3c de f7 f6 3b 34 20 b7 3b
       -0.008154134 0.012831451 0.0075368723 0.0055885557
000380 94 5f 4d bb 86 e1 08 3c 82 ad 34 3c fa fc a6 ba
       -0.0031337487 0.00835455 0.011027696 -0.0012740188
000390 d6 bd 0c bc 13 14 7a 3b ea d9 91 3b db c8 94 bc
       -0.008590182 0.0038158938 0.004451026 -0.018162182
0003a0 1a 2a 4f 3b 4c e9 34 3b c7 d7 b6 bb b8 e6 8f 3c
       0.0031610788 0.0027604876 -0.005579922 0.01756607
0003b0 76 9f 8e bc c2 37 01 bc c0 58 7e 3b f2 8a a8 3b
       -0.017410021 -0.007886829 0.0038810223 0.0051435167
0003c0 72 d0 88 3b 17 67 ea 39 1c 81 89 3c c7 12 5c bb
       0.0041752392 0.00044708766 0.016785197 -0.0033580528
0003d0 cf ae 93 3b 5e 10 b9 bc 71 9e 64 bc 2f df 0e bb
       0.004506923 -0.022590812 -0.013953791 -0.0021800508
0003e0 91 c7 82 bb 5a cb 23 bc ea 3a 73 3c 1f 1c 06 3b
       -0.0039910753 -0.009997213 0.014845589 0.0020463539
0003f0 ff f9 83 bc 94 34 2b bb ff 30 39 bc 4b eb fb 3b
       -0.016110418 -0.0026123868 -0.0113031855 0.007687961
